model.pth (torch, 92197 bytes, 12 tensors)

weight f4 [64, 128]
000000 d8 97 6b 3c 61 53 d6 bd 61 a9 52 bd e2 16 b2 bd
       0.014379464 -0.10465122 -0.051431064 -0.08695771
000010 9d 5f 3f be bd 1c 36 be dc c9 b2 bd 24 8b 4b be
       -0.18688817 -0.177844 -0.08729908 -0.19877297
000020 b0 77 29 be 03 0d 18 be 1e 5f c0 bd 0c 32 ad bd
       -0.16549563 -0.14848714 -0.09393142 -0.08456811
000030 5a 0d a6 bc fb 92 12 bc 41 a8 b7 3b 21 16 05 bd
       -0.020270038 -0.008946176 0.005604774 -0.032491807
000040 ad 79 ad 3c fc bb 89 3d d6 29 0c 3e 5b bc 4c 3d
       0.021176184 0.06725308 0.13687834 0.049984317
000050 58 c7 c8 bb 20 8e 84 3d 2a 16 ad 3c 40 02 7f 3b
       -0.0061272793 0.06472421 0.021128733 0.0038911253
000060 d5 54 c0 bb 33 c9 a9 bc 75 80 12 bd e5 0c ca bd
       -0.0058694878 -0.020725822 -0.035767037 -0.09865741
000070 55 21 7f bd fe 3d d2 bd 19 3c 3d bc bc 8d ae ba
       -0.062287647 -0.1026573 -0.011549973 -0.0013317387
000080 fc 67 0d 3d 75 99 1b bd 0f d8 7d bc 36 7f 76 bd
       0.034522995 -0.037988145 -0.015493407 -0.06017991
000090 fb 3f 86 3c 36 3a 8f 3c 35 8c 3c 3d 31 ad 75 3c
       0.01638793 0.017483812 0.04603215 0.014994905
0000a0 48 09 fa bc f1 30 ae bc ce 36 72 3b 6d 84 28 bd
       -0.030522004 -0.021263571 0.0036958936 -0.041141916
0000b0 62 e8 58 bd c6 3d ab bd 42 8b 08 3d 8b 7a b4 3b
       -0.052955993 -0.08361392 0.03333593 0.0055077723
0000c0 4f 0b 46 bc 26 ae 8f 3d 91 d9 7e bc 57 cf de 3b
       -0.012087657 0.07015638 -0.015554802 0.006799619
0000d0 ad dd 2e 3d b8 b3 b7 3b cc 88 aa 3c 87 ae fc bb
       0.042691875 0.005606141 0.020817183 -0.007711235
0000e0 92 1d 1d bd d6 d8 c1 bb c5 3f 87 3c e9 25 89 3b
       -0.03835828 -0.0059157414 0.0165099 0.0041854274
0000f0 34 13 99 bc 26 24 8d bd fa 3c d7 bb c7 56 b0 bc
       -0.018685915 -0.068916604 -0.0065685483 -0.021525754
000100 2e a4 20 3d ad df 5c 3d 45 e5 06 3d e0 68 87 bc
       0.039219074 0.05392425 0.032933492 -0.0165295
000110 39 6b 91 bd b8 d0 24 bc 17 4d 57 3c f6 26 2a bd
       -0.07100529 -0.010059528 0.013140938 -0.041541062
000120 5c 38 af 3b fd 24 e8 bc 2f 65 d6 3c ce 2c 9a bd
       0.0053472947 -0.02833795 0.026171295 -0.07528077
000130 81 31 ee 3c 5e 57 8e 3d 2e 4c 4e bc cf 8b 18 3d
       0.02907634 0.06950258 -0.012591405 0.037242707
000140 31 06 33 3d b9 a5 8b 3c 29 27 e4 bc 22 39 cf 3c
       0.043707076 0.017046796 -0.027850704 0.025295798
000150 48 3c 3e 3d 5d c7 be bc e5 b1 0c 3d ac da 56 bd
       0.046444207 -0.023288423 0.03434934 -0.052454636
000160 b6 28 0e 3b 40 62 25 3d ac 23 b0 bb ac b8 15 3a
       0.0021691746 0.0403769 -0.005375346 0.0005711417
000170 1c 76 bf 3c cf 05 91 bc 78 4e 3e bd e5 70 20 bd
       0.023371749 -0.017702965 -0.046461552 -0.039170165
000180 83 80 73 3c ff 42 08 bd 54 8e 38 3d 3e f1 52 3d
       0.014862183 -0.033267017 0.04505761 0.051499598
000190 bf 07 10 3d d5 7c 4e bc 44 cf a3 3c 6e 39 34 bd
       0.035163637 -0.012603004 0.019996293 -0.04400008
0001a0 55 e7 98 3d 53 f6 cc bc 7f 9d 96 bd 07 69 21 3c
       0.07465998 -0.0250198 -0.07354259 0.009851701
0001b0 eb 5a 58 bd 5e 71 3d bd 65 55 c7 3b 46 05 9a 3c
       -0.05282108 -0.046250694 0.006083178 0.018801343
0001c0 73 1a 8d bb 81 75 2e 3d 6c 3f 89 3c 4a c6 ea bc
       -0.0043061315 0.04259253 0.016753875 -0.028659005
0001d0 19 c0 0e bc e7 3a 08 3d cf aa 0f 3d 89 e1 41 3d
       -0.008712792 0.0332593 0.035075005 0.047334228
0001e0 8c b7 41 bd 37 f6 22 3d ae ea 1e bd 63 bc 47 bc
       -0.047294185 0.03978559 -0.038798027 -0.012190911
0001f0 78 b8 30 3d 47 db d4 3c 4e 90 d1 3c 34 25 2c 3c
       0.043144673 0.025983466 0.025581505 0.010506917
000200 c8 a3 76 3d 14 c9 26 3d 25 ba 26 3d fe 9d d2 3d
       0.060214788 0.040719107 0.040704865 0.10284041
000210 a1 df c5 3d 8f 39 0e 3e a6 6f 45 3d bf c3 d4 3d
       0.096617945 0.13889144 0.04820218 0.10388898
000220 52 86 77 3d bb c7 3c 3d b5 56 b6 3b 8e 53 ce 3d
       0.060430832 0.046088915 0.0055645355 0.100745305
000230 bc 51 7d 3c a1 6c 15 bd 89 d6 c9 bb e1 ca c5 ba
       0.0154613815 -0.03648055 -0.006159608 -0.001509037
000240 f3 33 a5 bd d0 70 51 bd f1 ca d9 bd 42 e7 a4 bd
       -0.08066549 -0.051132977 -0.10634411 -0.080519214
000250 28 21 d7 bc 8c cc 2c bd 60 57 4b bd 52 a7 24 bd
       -0.026260927 -0.04218726 -0.049643874 -0.04019863
000260 b1 a7 59 bd d8 fd 59 bb db b2 e4 3b 9b 16 5d 3c
       -0.05313844 -0.0033262875 0.006979329 0.013494159
000270 ae 08 4f 3d 0e de c6 3c b2 c8 87 3d 39 fb b8 3d
       0.050545387 0.024275806 0.066300765 0.09032292
000280 c6 20 47 3d 27 10 b4 3d 71 b2 a0 3d e7 dd af 3d
       0.04861524 0.08792143 0.07846535 0.085872464
000290 25 de 81 bc 05 d2 16 bd e7 7f 02 bd b9 7f 8c bd
       -0.015852997 -0.036821384 -0.03186026 -0.06860299
0002a0 85 60 d7 bd c7 75 e8 bd 6b e3 0e bc d9 a7 b1 bd
       -0.105164565 -0.11350589 -0.008721213 -0.086745925
0002b0 5b 14 97 bd fd 4d 8a bd a0 78 24 bd 97 86 f9 bc
       -0.073769294 -0.06753156 -0.0401541 -0.030459685
0002c0 8a a8 06 bb 40 96 0f 3d a7 c2 b9 3d 4d 25 66 3d
       -0.0020547234 0.0350554 0.0907033 0.056187917
0002d0 48 78 9d 3d 49 cd 63 3d 65 5e 47 3d 7c 8d 93 3d
       0.076889575 0.055615697 0.048674006 0.072047204
0002e0 3a 18 fb 3c 33 75 9e 3d 32 6f a3 3c 64 c6 8d 3d
       0.0306512 0.07737198 0.019950483 0.06922606
0002f0 10 46 b5 3c 72 c4 60 bd 09 cb 03 bd 88 76 78 bd
       0.022128135 -0.054874845 -0.03217605 -0.060659915
000300 68 5c 82 bd 3b 8e da bc 32 19 c9 bd a9 64 dc bd
       -0.06365281 -0.026679149 -0.09819259 -0.10761387
000310 99 fa 89 bd 1a b7 4c bd 4a ef b8 bc ba a2 1a 3d
       -0.06737251 -0.049979307 -0.02257504 0.037752844
000320 a7 37 32 bd ed 9b a0 bc fd 14 b3 bc 30 11 ac 3d
       -0.043510105 -0.019605601 -0.021860594 0.08401716
000330 87 88 ff 3d 1e 8b f1 3d 21 ea d3 3d e2 60 1c 3d
       0.124772124 0.117941126 0.10347391 0.038178332
000340 68 e3 91 3d a1 38 b7 3c eb d8 5c 3d 14 65 9a 3b
       0.071234524 0.02236587 0.053917807 0.0047117565
000350 b0 25 26 3d f3 ed 61 bd a1 c2 99 bd 33 4c e2 bb
       0.040563285 -0.055158567 -0.07507826 -0.0069060563
000360 37 c3 c4 bd 2f 55 2b bd 16 eb 9a bd bc 6b 81 bb
       -0.09607547 -0.041829284 -0.0756437 -0.0039496105
000370 6d bd 77 bd e5 b1 02 bd 4e b1 0d bd 0d 17 29 bd
       -0.060483385 -0.031907935 -0.03459292 -0.04128175
000380 7b 9a d1 3c 3b 61 24 3d c3 92 3e 3c 70 66 98 3b
       0.025586357 0.04013179 0.01163167 0.0046508834
000390 97 01 96 3d 4c bf 76 3d 53 33 8e 3d cc 8b 02 3e
       0.07324522 0.06024103 0.06943383 0.12748641
0003a0 42 f1 87 3d 3f f5 cd 3c 56 1d 08 39 c0 5c d9 3c
       0.06637813 0.025141357 0.00012980899 0.026533484
0003b0 da c0 40 3d a1 f9 22 bd 6e 72 7f bd 18 f0 b7 bd
       0.047058918 -0.039788846 -0.062364988 -0.08981341
0003c0 95 96 04 bd d8 a9 c2 bd ee b0 dd bd c8 ad c0 bd
       -0.03237017 -0.095050514 -0.10824762 -0.09408146
0003d0 a2 f4 8c 3a 06 90 f8 3b 5a e2 6b bc e0 72 3f bc
       0.0010754059 0.0075855283 -0.014397228 -0.011685103
0003e0 32 6a 4b 3d 4c 8a c4 3c 55 c2 ac 3c ed 7e ae 3d
       0.049661823 0.023991726 0.021088758 0.08520303
0003f0 80 38 e6 3d 1b 99 66 3d 49 93 6f 3c 18 c8 0e bd
       0.11241245 0.056298357 0.014622518 -0.034858793

bias f4 [64]
000000 77 eb fa 3e 7b 36 fb bd d6 68 b4 3d eb 54 21 3e
       0.4900777 -0.12266251 0.08809058 0.1575505
000010 e7 ff ad 3d 46 f3 aa 3d 9c ea 35 be c0 f5 79 3e
       0.08496075 0.08347182 -0.17765278 0.24410152
000020 3e e7 25 3d 51 d6 be 3d 71 d6 d6 3d f9 e3 9a 3e
       0.040503733 0.09318221 0.1049012 0.30252054
000030 13 de 12 3e 8a fe 20 3b b5 d4 c0 3c 95 3d 5c 3c
       0.14342527 0.002456578 0.023538927 0.013442417
000040 b1 11 b6 be 35 c5 d9 3c 6c 13 91 3e ee 4d 84 be
       -0.35560372 0.026583293 0.2833513 -0.25840706
000050 b0 30 49 3e 52 52 84 3d 87 fc 2c 3e ce 09 1c 3e
       0.19647479 0.06461014 0.16893207 0.15238115
000060 0a aa 8d be 73 60 0e bf 44 0c 96 3c ca 79 c5 3d
       -0.27668792 -0.5561592 0.018316396 0.0964237
000070 9d e6 cb 3e 37 ca ec 3d 55 56 11 be a6 bc 75 3e
       0.3982438 0.11562007 -0.1419309 0.23997745
000080 30 48 00 3e 59 64 31 bd e6 77 7d 3e ec ad 18 3e
       0.12527537 -0.04330859 0.24752769 0.14910096
000090 5a 6f 64 be 89 6a eb 3d 66 ed c6 3d 75 7d b4 3d
       -0.22308102 0.11494929 0.09713249 0.088129915
0000a0 ce 7f 4c bb b3 51 04 3e 65 05 05 3e 63 8a 87 bd
       -0.0031204107 0.12921791 0.12990339 -0.06618192
0000b0 5f 59 11 3e 00 44 0a 3f 88 9c ae 3d e4 37 9d 3e
       0.14194249 0.5401001 0.0852595 0.30706704
0000c0 56 a5 92 3e 1e 0d 0a 3e df 3a 59 be 4e 38 43 3e
       0.28641766 0.13481566 -0.21213864 0.19064447
0000d0 2c 73 92 3e e7 99 78 3e aa 0c e6 bd 74 d0 d0 bd
       0.28603494 0.24277459 -0.11232884 -0.10196009
0000e0 18 00 17 3e 58 74 b3 3e af 42 0c be 5d 51 0a 3d
       0.1474613 0.350497 -0.13697313 0.033769
0000f0 ce c3 f4 3d 5a 6f ec bd 9b a1 bc bd c7 e4 21 3e
       0.11951409 -0.11544676 -0.09210511 0.15809928

weight f4 [32, 64]
000000 a5 5e df bd 18 c1 bb bd 9b 73 2c bd 9c 94 bc bd
       -0.10906724 -0.09167689 -0.042102437 -0.092080325
000010 f2 4d 72 3d 07 7e d2 3d 49 74 df bd 49 6a a1 3d
       0.059156366 0.10277944 -0.109108515 0.078816004
000020 1c 71 fd 3d fd b7 2d bd 1a 89 62 bd b3 28 ff bd
       0.123750895 -0.042411793 -0.05530653 -0.12458935
000030 b4 20 0f 3d 7f f6 12 bd b3 16 78 3d a3 e3 ee 3e
       0.034943298 -0.03587961 0.060568523 0.46658048
000040 7a f7 94 bd 78 78 30 be f4 19 99 bd 90 ae 23 3e
       -0.07273765 -0.17233455 -0.07475653 0.15984559
000050 cc 48 69 3e 2f d5 e1 3c 2d 18 4c 3d 17 03 9f bd
       0.22781676 0.027567474 0.049827743 -0.07764261
000060 71 f4 ec 3c 01 ee 9a be 68 f6 35 bd 44 2c 7d 3d
       0.028925152 -0.30259708 -0.044424444 0.061809793
000070 56 7a 05 3e 7b ab 73 3d 44 69 61 3c 52 91 a4 3d
       0.13034949 0.05948971 0.013758007 0.0803553
000080 07 64 09 3e 8e 01 0f be 2b d8 f8 bc e8 56 83 3c
       0.13417064 -0.13965437 -0.030376514 0.016032651
000090 bc 60 8f be 0d 0e cf bc 15 11 20 3e ac 38 d8 bd
       -0.2800349 -0.025275255 0.15631516 -0.10557684
0000a0 c6 f5 08 be ca 75 b3 bd dd 6b 0f ba bd 3f 08 bd
       -0.13375005 -0.08762701 -0.000547109 -0.03326391
0000b0 ba a1 09 bd 89 31 12 be e1 24 c8 3b 08 70 96 bd
       -0.0336015 -0.14276709 0.006107912 -0.07345587
0000c0 d8 cb 3c 3e 1f d7 02 be f0 2c 11 be c5 02 0e 3e
       0.18437135 -0.12777375 -0.14177299 0.13868244
0000d0 f0 5c 2f bd b2 9f b0 3c 86 d3 40 bd e9 9e 18 3d
       -0.04281324 0.021560524 -0.047076724 0.037260924
0000e0 b5 37 74 3d cb 0a 64 3c d3 97 a1 3c 7d 3e a8 bc
       0.05962344 0.013918589 0.019725716 -0.02053761
0000f0 6b a9 d9 3c 44 3b dd 3c 13 13 c1 3c 32 a6 5a 3b
       0.026570043 0.0270058 0.023568666 0.003336322
000100 11 ba 31 3c 12 8a 9f bd e3 67 c0 3d d9 f5 e4 bd
       0.010847584 -0.07790007 0.09394815 -0.11179704
000110 e1 22 42 3d a9 24 e1 bd 30 00 46 3c 0e 4d a3 bd
       0.047396544 -0.109933205 0.012085006 -0.079736814
000120 d5 0c 02 3c 72 b7 60 bd 78 85 a0 bd 87 08 80 bd
       0.00793763 -0.054862447 -0.07837957 -0.062516265
000130 54 b4 c2 bc 03 b6 5b 3b c0 fe 0c 3d cb 92 2e 3d
       -0.023767628 0.0033525235 0.034422636 0.04262046
000140 22 4d e8 3d 24 7d 0d 3d 3a 67 ce bc 1d 57 75 3d
       0.11342837 0.03454317 -0.025195707 0.05989753
000150 63 0f 3c 3d db c6 19 3d cb 6f e0 bd 45 18 c9 bd
       0.04591311 0.03754316 -0.10958823 -0.09819082
000160 16 7b 7c 3d aa 2a 40 3d 85 55 b6 3b 9f a1 06 be
       0.06164082 0.046915688 0.005564394 -0.13147591
000170 cc 24 5d bd 4a 17 ae 3c 30 df 81 bd 42 a3 e9 b9
       -0.05399017 0.02125134 -0.06341398 -0.0004456286
000180 e0 55 80 3c 34 f1 d9 bd 9c 6f 98 3c 43 84 7b 3c
       0.015665948 -0.10641709 0.018607907 0.015351358
000190 5d d5 46 bd a9 64 80 bc f1 95 83 bd f6 ff c1 3d
       -0.048543323 -0.015672999 -0.064250834 0.09472649
0001a0 c8 62 c3 3c a2 b9 6a 3c 33 a7 e2 bd f3 b5 dc bd
       0.023850814 0.014326485 -0.11067047 -0.107768916
0001b0 ab 04 50 bd b3 7f 45 bc d1 63 2f bd 5c 0d 17 bd
       -0.0507857 -0.012054372 -0.0428198 -0.036877975
0001c0 1b 01 ce bd 3b 64 02 3d 7e 60 4d bd cd 4c e8 bd
       -0.100588046 0.03183387 -0.05014085 -0.113427736
0001d0 a3 a1 20 bd e3 5b be bd a3 7d ab 3d ef dd ed bd
       -0.03921665 -0.0929487 0.08373573 -0.11614596
0001e0 69 a7 bf bd 2d 49 94 3d 7a c4 60 3c 0a f1 af bd
       -0.09358103 0.0724052 0.013718719 -0.085908964
0001f0 d8 13 46 ba 44 19 49 bc 32 52 5e 3d 13 f0 65 bd
       -0.00075560575 -0.01227409 0.054277606 -0.056137156
000200 1d 92 06 bd 4f cd b2 bd 7b 49 67 3e ea e8 be bd
       -0.03285419 -0.08730566 0.22586624 -0.093217686
000210 cd 40 3e bd 1a 1d d6 3d 14 aa e0 bd 05 b8 5f 3d
       -0.046448518 0.104547694 -0.1096994 0.054618854
000220 72 7a 55 3d 41 ed 04 3f f6 00 d0 3c 1e 6d 5a bd
       0.052118726 0.5192452 0.025391083 -0.05332672
000230 ad ad eb bc e4 6d 32 bd 76 8e 48 bd 24 7e 07 bd
       -0.028769339 -0.04356183 -0.048963986 -0.03307928
000240 e6 89 2e be a5 98 a7 bd a7 35 b7 3d db 2c 70 bd
       -0.17044792 -0.081834115 0.0894578 -0.058636528
000250 05 f6 9d bd 76 07 9e 3d fb 91 75 3c 60 82 3e 3c
       -0.0771294 0.07716267 0.014988418 0.0116277635
000260 54 77 30 3d a7 c0 a8 bd 6a 2b 75 bd fe ee 42 bd
       0.04308255 -0.082398705 -0.059855856 -0.047591202
000270 ad 68 c1 bc 08 a6 75 bd 79 61 77 bc 1c d8 46 bd
       -0.023609484 -0.059972793 -0.015098923 -0.04854594
000280 76 e9 e1 bc ee 37 6c bd 2f 6e f5 bc c7 55 90 bd
       -0.027577143 -0.057670526 -0.029959766 -0.07047611
000290 7c f7 31 be e7 df 23 3e 82 a8 a3 3c ca 9e d6 bd
       -0.17379564 0.1600338 0.019977812 -0.10479505
0002a0 d7 76 21 bd 7a cd 85 3c 9d bd 63 3d 95 2b 92 bd
       -0.039419975 0.01633333 0.05560075 -0.07137219
0002b0 26 4f c2 bc c0 83 52 be eb 21 29 bd 8c 14 2f bd
       -0.023719382 -0.20558071 -0.041292112 -0.042744204
0002c0 33 0a fb 3d 45 df c0 bd 77 5f 15 be 85 49 43 3c
       0.12257805 -0.09417585 -0.14587198 0.011919384
0002d0 ad 07 31 3c c5 55 a2 ba fb 2f 8a bd 0b 09 de bc
       0.010805053 -0.001238518 -0.06747433 -0.027103921
0002e0 75 c8 32 bc 58 13 86 bd 91 d8 2c 3d 98 c7 bd 3e
       -0.0109120505 -0.06546658 0.04219872 0.3706634
0002f0 c6 7c 89 bc c2 d9 d9 bd fb 9d da bc f5 ec af 3c
       -0.01678313 -0.10637237 -0.02668666 0.021475295
000300 42 27 a4 bb 11 0b f3 bd 90 23 ce 3d b9 c3 b5 3d
       -0.0050095627 -0.11867345 0.10065377 0.08875222
000310 d3 65 1d be 25 f8 5f 3d d5 d8 88 3d ff 56 ea bd
       -0.15370874 0.05468001 0.066819824 -0.114423744
000320 49 0c c5 bc 7a cf 53 3d 69 0f 8e bd fa ba 0e bd
       -0.02405371 0.051711537 -0.06936533 -0.034846283
000330 e2 24 88 bd ea 08 61 bd 8f 2a 0d 3e d4 3c 1c be
       -0.0664766 -0.05494014 0.13785766 -0.15257579
000340 e8 5e 8a 3d 37 af 95 bd 45 c7 d5 bd 36 b1 1a 3c
       0.06756383 -0.0730881 -0.10438398 0.009441664
000350 0d be f6 3d 44 68 95 3d e6 b4 f9 bd a0 c1 1c 3d
       0.12047968 0.07295278 -0.12192707 0.038270593
000360 43 65 65 3e 31 74 50 bd 06 31 0c 3d e4 ef 8c 3c
       0.2240191 -0.05089206 0.03422644 0.017204233
000370 93 5f 0d bd 92 57 4b 3e 8d 7c 6a be 46 08 6f bd
       -0.034514975 0.19857624 -0.22899075 -0.0583575
000380 83 d3 b0 3d b1 75 47 bc 67 6a 16 3e e4 d0 d4 bd
       0.08634093 -0.012174056 0.14689027 -0.10391405
000390 8a d3 42 3d 5d 08 84 3d 02 32 6d 3d 12 72 e4 bd
       0.04756502 0.06446908 0.05790902 -0.1115457
0003a0 14 b5 34 be 09 7b d7 bd 68 65 9e bd 84 90 1c 3e
       -0.17647201 -0.10521514 -0.077341855 0.15289503
0003b0 a6 68 0b bc 6b bb b2 bd 4e cf 2e bd bc ce 89 be
       -0.008508837 -0.087271534 -0.04267817 -0.26915538
0003c0 a5 2e 4a 3d e7 f5 05 bd e1 eb 01 3e 62 52 43 bc
       0.04936089 -0.032705214 0.12687637 -0.011921497
0003d0 11 9d bd bd 84 d9 44 bd 03 ff 18 3d 31 2a fa bd
       -0.09258474 -0.048059 0.037352573 -0.122150786
0003e0 6f ea c1 bd bb 0c 0f 3d c9 1c 1e bd 57 01 34 bd
       -0.09468543 0.03492425 -0.03860167 -0.04394659
0003f0 6b 66 00 3d c5 54 69 3d 53 41 46 bc 0c 9d b4 3d
       0.031347673 0.05696561 -0.012100535 0.08819017

bias f4 [32]
000000 8a ff 26 3e 57 41 92 bb 97 d7 43 3e f0 2a 90 bd
       0.16308418 -0.0044633555 0.1912521 -0.0703944
000010 d8 ff 1a 3d 74 0e c3 3e 8a 8a 5f 3e df 97 9a 3e
       0.037841648 0.38096964 0.21830192 0.30193993
000020 5c a3 92 3e 8f ad b6 3d 8c 56 d8 bd 0b f9 5f 3e
       0.28640258 0.089198224 -0.105633825 0.21872346
000030 92 dc f2 bd be b8 b4 3e ba 1e 4f 3e 55 b0 90 3e
       -0.11858477 0.35297197 0.20226565 0.2825953
000040 48 1d f8 3c 40 db 47 3e 70 0f ac 3d 01 14 83 3d
       0.0302874 0.19517231 0.08401382 0.064003
000050 4f 63 04 3e b1 48 aa 3e 33 23 33 bd da 4b 89 be
       0.12928508 0.33258584 -0.04373474 -0.26815683
000060 e3 fb f1 3e c7 0b 88 3e d5 d3 9d be fe 6f 16 3e
       0.47262487 0.26571485 -0.30825678 0.14691159
000070 9d bb ec 3e d2 21 82 3d 48 29 29 3e 8a 15 d9 bb
       0.46236888 0.06354107 0.16519654 -0.006624882

weight f4 [16, 32]
000000 fc 8f 41 3e af 4f e4 3c 7d 7a bc bc 8f 46 d3 bd
       0.18902582 0.027870027 -0.023007626 -0.10316192
000010 f7 8f b8 3d 28 47 1b be ec aa 3b 3c 5b 93 18 be
       0.09011834 -0.15163863 0.011454325 -0.14899962
000020 8b 09 b8 3d 30 76 16 3f 73 1e 1c be d8 2c fd 3c
       0.08986195 0.5877409 -0.1524599 0.030905172
000030 c0 1c 94 bd ad b9 48 bd d4 9d 62 3d 12 01 71 be
       -0.07232046 -0.0490052 0.055326298 -0.23535565
000040 39 52 50 3d 98 1f 2e be 63 b4 71 3e 31 76 36 be
       0.050859664 -0.1700424 0.23603968 -0.17818524
000050 21 ad 56 bd 54 14 9a 3e 95 7f 49 3d 1c 2f 8a bc
       -0.052411202 0.30093634 0.049193937 -0.016868167
000060 cd d6 ea 3a f1 e4 b3 3d 06 c7 16 3e 20 30 e5 bd
       0.0017916799 0.087839015 0.14724359 -0.1119082
000070 de 88 52 bd 48 0a ae bc 5e 8f 40 3d c0 64 cf bd
       -0.051400058 -0.021245137 0.047011726 -0.101266384
000080 47 9d a1 3e 21 f4 5b bd 95 12 90 3e 6a 28 7a be
       0.31565306 -0.053699616 0.28139177 -0.24429479
000090 7c f1 28 3e 6a 73 64 3e 73 d8 1d be 51 fa 0b 3e
       0.16498369 0.22309652 -0.154146 0.13669707
0000a0 c8 72 13 be 4f f4 2f bb c0 7a 05 be 8c 0c 1d be
       -0.14399254 -0.00268485 -0.13035107 -0.15336818
0000b0 fc 34 0d 3e 41 e0 6d be 04 75 ba 3e c1 df bc 3d
       0.13789743 -0.23230077 0.364174 0.09222365
0000c0 d3 dd 4a 3d ba 26 4c be 6a c2 e3 3e 12 ca 9c 3d
       0.049527954 -0.19936648 0.44484264 0.07655729
0000d0 18 2d 97 3b 53 26 c2 3c 0a 7b ea bd 8f a8 15 3e
       0.00461353 0.023699915 -0.11449249 0.14615081
0000e0 d5 3f 4e be 97 80 c8 bd 66 4a 32 bc ce 7f 25 be
       -0.20141537 -0.097901516 -0.010881996 -0.16162035
0000f0 4e 07 17 3d eb c4 f0 bb dc da 36 3e 9d df 90 bb
       0.0368722 -0.007347693 0.17856926 -0.004421188
000100 45 bf 08 3e 85 42 7b bd cc 24 ad 3e 2d c8 3a 3d
       0.13354214 -0.061342735 0.33817136 0.04560106
000110 e1 ed 55 bd 52 66 cf 3d 21 d0 33 3e 9b fd 65 bc
       -0.052228812 0.10126938 0.17559864 -0.014037515
000120 5c 0e 7e 3d 0a 7a 01 3f 77 71 da bc d5 01 4e 3d
       0.062025413 0.5057684 -0.026665432 0.050294716
000130 08 bf 29 be a0 c5 ef bd 66 95 56 3e cb 77 05 3c
       -0.16576779 -0.11707616 0.20955428 0.008146237
000140 06 da de bd f5 cb 2c 3e 9f 75 cd bd 49 d1 ab bc
       -0.108814284 0.16874678 -0.100322 -0.020973818
000150 b1 32 2e 3e 2a 24 83 bd f4 27 21 3e db 88 be bc
       0.17011525 -0.06403382 0.15737897 -0.023258617
000160 40 d7 96 be 07 5c ea 3d fb 3e 1a 3e ea 4d ff bb
       -0.29461098 0.11443334 0.15063088 -0.0077912705
000170 3e 53 07 3e f1 58 3c be 66 c5 d0 3e 7d 39 c6 3c
       0.13215348 -0.18393303 0.40775603 0.024197334
000180 37 0a 27 b9 63 4f 70 3c 99 af 0b bd 6b d9 15 3d
       -0.00015930166 0.014667365 -0.03410301 0.0365843
000190 ce 17 76 bd 85 36 aa bd 10 88 e1 bd 0b 8d e3 bd
       -0.060081296 -0.0831118 -0.1101228 -0.11110886
0001a0 b2 36 7e bd 33 f8 59 3d 5e 57 02 3e d6 16 a5 bd
       -0.06206388 0.053215217 0.1272864 -0.08060996
0001b0 a9 a1 fd bc 01 af 06 be b0 74 4d bc 6d 7c cd bd
       -0.030960875 -0.13152696 -0.0125400275 -0.10033498
0001c0 48 50 89 bc 80 57 2c bc 63 ba 89 3d f5 6f 89 3d
       -0.016761914 -0.0105189085 0.067250036 0.06710807
0001d0 6f dc 53 3d 5e d1 1c be 12 4d 24 be 6d 41 c2 bd
       0.051723894 -0.15314242 -0.16045025 -0.09485135
0001e0 b3 fb e8 3d 04 b7 06 be 2e ee 20 be 65 de 91 bc
       0.11376133 -0.13155752 -0.15715858 -0.017806241
0001f0 86 d3 0f 3e 2d 57 0d bb a9 77 c0 3d d4 af 1e 3e
       0.14045534 -0.0021566853 0.09397823 0.1549676
000200 8d 3b 5b bc 3f 93 22 3e 02 fa 63 be 82 eb b9 3d
       -0.013380897 0.15876482 -0.22263339 0.09078123
000210 ff ee c6 bd 27 5e a0 be 8a 9d 87 bd 33 38 18 3c
       -0.09713554 -0.31321833 -0.06621845 0.009290743
000220 11 99 a4 bd ae 5d e9 3d 85 be 04 3e 7f 0f 4a 3e
       -0.080370076 0.11394821 0.12963302 0.19732474
000230 ab 18 c9 3d 07 c4 2e bb 09 f2 14 3e 0d 16 1c 3b
       0.09819158 -0.0026667134 0.14545454 0.0023816854
000240 2a 46 29 3e bb 35 1b be 67 0a 8f bd 7d 66 03 3b
       0.16530672 -0.15157215 -0.06984406 0.0020050101
000250 0b 74 31 3d 06 90 0a 3d ce 84 e9 bd 98 53 4e 3c
       0.043323558 0.033828758 -0.114022836 0.0125931725
000260 bc bf 8b bd cf 6d a8 bd 77 98 8c 3d 85 21 ee 3d
       -0.0682368 -0.08224069 0.06865018 0.11627487
000270 50 a3 45 be 74 d3 e5 bd 81 a5 f3 bd 5f 8d 03 be
       -0.1930058 -0.11221972 -0.11896802 -0.12846898
000280 c3 dd 2b be 88 1f 1c 3e bf 22 f9 bd 42 df 22 3e
       -0.16783814 0.15246403 -0.121648304 0.15905479
000290 77 b2 ce bd ca bd a4 3d eb f9 36 be 9b 69 af bd
       -0.10092633 0.08044012 -0.17868774 -0.085650645
0002a0 41 33 e7 bd e9 05 bb bd 8f df bd bd 3e f8 41 bd
       -0.11289073 -0.09131987 -0.09271156 -0.047355883
0002b0 8c 8a 0b 3e 48 23 18 be 2b f5 16 3c 4d 4a 27 3d
       0.1362707 -0.14857209 0.009213726 0.040842343
0002c0 73 a9 1f 3d 40 b4 96 3d 20 99 01 3e 43 27 3c 3e
       0.03897996 0.07358599 0.12656069 0.18374352
0002d0 19 c1 33 be 31 d8 e9 bc df 77 fe 3a cd 47 63 bd
       -0.1755413 -0.02854547 0.0019414386 -0.055488396
0002e0 bb 98 20 bd 79 d8 f4 3d a8 ae f9 3d 3a 85 29 be
       -0.039208155 0.119553514 0.12191516 -0.16554728
0002f0 d9 d4 5c 3d 28 b6 24 3e f0 62 95 bc 44 1b c0 3c
       0.053913925 0.16085112 -0.018235654 0.023450501
000300 33 8b e4 3e 15 73 92 bc 40 b1 77 bd 10 32 a6 bc
       0.4463745 -0.017877141 -0.060471773 -0.020287544
000310 a3 c2 db 3d d3 65 03 be 56 0e 4a bd 1c 07 7d 3d
       0.107304834 -0.12831812 -0.049330078 0.06177436
000320 54 57 a3 bb 6b c5 b5 bc 81 7d fb bd 04 8f b2 3e
       -0.0049847756 -0.022188863 -0.12279797 0.34874737
000330 d8 97 d7 bb 71 32 e0 3b 57 ee c5 3c 51 5d 3e 3e
       -0.0065793805 0.0068419506 0.0241615 0.18590285
000340 63 8c 95 3e 18 ea 3e 3e a5 12 7d 3d 03 5c ae be
       0.2920867 0.18643987 0.06178536 -0.34054574
000350 9c 50 5d 3e 7a 6f 19 be 94 4b 31 3d 0c 86 23 3e
       0.21612781 -0.14983931 0.043284968 0.15969104
000360 f5 66 23 be a5 b7 92 be 02 a4 bc be 7a a0 9e bd
       -0.15957244 -0.28655735 -0.36843878 -0.07745452
000370 13 3e f2 3e 6c d8 c2 bd d4 0a af 3d 7a f0 b5 bd
       0.47312984 -0.095139354 0.08546987 -0.08883758
000380 5e 66 6c 3c 3d 9b ba 3c 25 8f b9 bd 71 96 70 3e
       0.014428703 0.022779102 -0.09060506 0.23494889
000390 14 a2 44 3e 58 62 bf 3e a5 3e 28 be da 0d 43 3d
       0.19202453 0.37379718 -0.16430147 0.04762063
0003a0 66 26 b3 3b 0a c8 29 3e 67 57 3f bd d0 41 0b be
       0.005467224 0.16580215 -0.046714213 -0.13599324
0003b0 e0 f9 d9 3d 7c 46 8b bd bd 97 aa bc 03 07 6e 3c
       0.10643363 -0.06800553 -0.020824308 0.014528039
0003c0 44 7f d6 3e b8 84 25 3d 33 4d 9b be 53 d6 aa bd
       0.4189397 0.040409774 -0.30332336 -0.0834166
0003d0 69 69 12 be 94 dc 89 3d f4 b6 17 bd 49 28 0e be
       -0.14298023 0.06731525 -0.037039712 -0.13882555
0003e0 da fc 3a 3e 30 7f 4a be ed d0 b2 bc eb e8 b9 3e
       0.18260518 -0.1977508 -0.02182814 0.36310515
0003f0 63 b3 96 3d c4 a0 6c 3e 08 b7 5d 3e ef 14 e4 3d
       0.07358434 0.23108202 0.21651852 0.11136805

bias f4 [16]
000000 1a 24 6e 3e 9a e6 c5 3e 13 22 de bd e7 d0 c3 bd
       0.23255959 0.38652498 -0.10846343 -0.09561329
000010 ff 24 15 be 87 7c 0b be 54 94 99 3d c2 be 7d 3e
       -0.14564894 -0.13621722 0.074989945 0.247798
000020 49 a1 3c 3e ba b9 69 bd 08 e9 c8 3e 1d 52 73 3e
       0.184209 -0.05706189 0.3924029 0.23761792
000030 06 e8 59 3e 8c df 52 3e 15 a6 1a 3d b0 aa be bd
       0.21279916 0.20593089 0.037756044 -0.093099

weight f4 [32, 16]
000000 53 dc d3 b9 95 55 1e be 88 90 4c 3e 8c 31 19 ba
       -0.0004040921 -0.15462334 0.1997701 -0.000584387
000010 20 09 51 be ed 1d 6b 3e 1f 96 94 bd d3 6b b1 bd
       -0.20413637 0.22960635 -0.07255196 -0.08663144
000020 a7 aa 51 be 6b 0e 9a 3d e8 3e 14 3d 31 54 63 3d
       -0.20475255 0.07522281 0.036192805 0.055500213
000030 c1 37 91 bd 26 0d ba 3c ad 6b 1b 3e c5 b1 c5 bc
       -0.07090712 0.022711348 0.15177794 -0.024132619
000040 a9 b7 0d be 4e 14 28 bb 2a 7f ff bd b6 02 10 3d
       -0.13839592 -0.0025646868 -0.124754265 0.035158835
000050 72 05 a0 3d f8 4e 3b be d8 6d ab 3e 36 b2 57 be
       0.078135386 -0.18291843 0.33482242 -0.21064076
000060 ff 58 83 3e 9d df e8 bd 2e d3 c5 3e 3b b9 51 bd
       0.25653836 -0.11370776 0.3863768 -0.05120204
000070 c8 a4 31 3e 44 99 2b bd d8 55 06 3f a1 11 f1 3d
       0.17348015 -0.041894212 0.5247474 0.117709406
000080 06 22 61 be ba eb 9d 3e 08 e3 6e 3e 5d 30 6a be
       -0.21985635 0.30843908 0.23328793 -0.22870012
000090 12 35 95 be 31 d1 ef 3d 8f 8f 91 be ec 49 8a bc
       -0.29142052 0.11709822 -0.2842984 -0.016880952
0000a0 4d 18 b1 3d 80 e0 9c bd 34 2c 92 3e f1 11 89 3d
       0.08647213 -0.076600075 0.2854935 0.06692875
0000b0 a3 0c 13 3e c1 2b 21 3e fb 80 63 bd a8 fa c2 3e
       0.1436029 0.15739347 -0.055542927 0.3808186
0000c0 bb b4 d8 bc 16 50 45 be 86 d4 97 3d 31 1b 35 be
       -0.026453367 -0.19268832 0.074135825 -0.17686154
0000d0 c8 27 b0 3d d6 07 5c be c3 00 10 be 14 5e 91 3e
       0.08601338 -0.21487364 -0.1406279 0.28392088
0000e0 37 71 55 be c2 93 a0 3d d8 57 d0 bd 9d f7 d6 3e
       -0.2084397 0.078406826 -0.10173005 0.4198579
0000f0 5b 46 26 3e 7d be 42 3c 41 4a ef 3e 1c 4e dd 3d
       0.16237776 0.011886236 0.4673634 0.10805914
000100 3f 4a 04 bb 75 5d be 3d bc 16 39 bc 1b e5 c9 3d
       -0.0020185856 0.09295169 -0.011296924 0.098581515
000110 b8 bf c4 bd da 46 67 bd fd 83 af bd d1 de d0 3d
       -0.0960688 -0.056464054 -0.08570097 0.10198749
000120 c4 b7 6f 3e 51 58 29 3e 43 87 05 3e 17 6f c2 3e
       0.23409945 0.16537596 0.1303988 0.3797538
000130 4f 93 48 3e 5b f4 4e bd d4 02 6f be fc cd 0f be
       0.19587444 -0.050526004 -0.23340923 -0.1404342
000140 91 7b 25 3e 8c ea bb be 35 d1 f2 3d e1 49 7f 3d
       0.16160418 -0.36702383 0.11856309 0.062326316
000150 a8 01 28 be b8 75 3f 3e 35 71 be 3c 46 ce 8f be
       -0.16406882 0.1869725 0.02324734 -0.28087062
000160 bb 5c 35 bd 53 77 98 3e 81 91 7b 3e 63 dc c7 3e
       -0.044277888 0.29778537 0.24567224 0.3903533
000170 51 6a 5d be 37 15 27 be 74 0c 7a bd 1d be ad 3e
       -0.21622588 -0.16316687 -0.061047032 0.33934107
000180 f7 a1 d3 3e 2b 41 10 be 52 61 77 3e e6 87 0d 3e
       0.41334507 -0.1408736 0.24158219 0.13821372
000190 5c bd 00 3e 3e de 9c 3d fe 5a 4b 3d ed 51 f9 bc
       0.12572235 0.07659577 0.049647324 -0.030434573
0001a0 f3 d6 d0 bc 8d 6d c0 3c 2a ea 9b 3e f9 1a b1 bd
       -0.02549312 0.023489738 0.3045209 -0.08647723
0001b0 aa e7 a5 3d 36 90 b8 3e 58 b9 04 3e d1 b3 28 be
       0.08100827 0.36047524 0.12961328 -0.16474845
0001c0 bf 3d c0 3e 7a 33 bf bd e7 1c a8 3e d2 41 1e be
       0.3754711 -0.0933599 0.3283455 -0.15454796
0001d0 93 4d 58 3e ea c5 ad bc 81 68 19 3e 64 bf 51 3e
       0.21123342 -0.021212537 0.14981271 0.20483166
0001e0 60 31 96 be cf a0 9a 3d 7d 52 a3 3d 3a 00 68 be
       -0.29334545 0.07550203 0.07974718 -0.22656336
0001f0 2e 89 66 be dc 02 5a 3d 54 8f ca 3d 81 38 13 be
       -0.22513267 0.053225383 0.09890619 -0.14377023
000200 f1 15 28 bd 0c 83 8e 3e 0b ee 99 3e 7f f0 1f be
       -0.04103655 0.27834356 0.30064425 -0.15619086
000210 e3 c6 d2 bd 3a 1a b3 bd 06 57 ec 3a fc 33 90 3e
       -0.10291841 -0.08745237 0.0018031306 0.2816466
000220 64 d8 15 be 1a 14 b9 be 90 5e 3a be 25 9c d6 bc
       -0.14633328 -0.3614815 -0.18200135 -0.026197502
000230 96 7a c6 3d 75 6e df bd 9e 8b 80 3e ab 86 8f 3e
       0.0969135 -0.1090974 0.2510652 0.2803243
000240 f5 d3 1f 3d e6 44 41 be c9 2e 1a 3e c9 8b 29 3c
       0.039020497 -0.18873939 0.1505691 0.010348269
000250 ce 7b 9b be ae 60 18 3e e3 98 df 3d 27 25 b1 3e
       -0.30367893 0.1488063 0.10917833 0.34598657
000260 15 fa 2b 3e a8 28 93 3e 5f 00 72 be 91 15 c3 3d
       0.16794617 0.28741956 -0.23632954 0.09525598
000270 c6 9f 4f be 0b 53 70 3c cf 4e 2e 3e 69 a2 31 bd
       -0.20275792 0.0146682365 0.1702225 -0.043367777
000280 7d ac 03 3e 0e 99 67 3e 1d 51 81 be 7c 18 61 3e
       0.12858768 0.2261698 -0.25257197 0.21981996
000290 45 94 0d 3e 9e 62 c8 bb 88 7d 98 3d ad 66 30 3e
       0.13826092 -0.0061152717 0.07445818 0.17226668
0002a0 78 1d 0c be 64 e8 ac 3e fc 70 2f 3d 2f 56 77 bc
       -0.13683116 0.3377105 0.04283236 -0.015096231
0002b0 6d 01 f5 3e d6 93 b5 bd 67 c2 2a be ed 35 e8 bd
       0.4785265 -0.08866088 -0.16675721 -0.113384105
0002c0 ed ab 2d be ff ec 5f bd 64 09 d8 bd 42 18 6e 3e
       -0.16960116 -0.054669376 -0.10548666 0.23251441
0002d0 b0 13 02 3e e0 32 5a 3e 26 c8 06 be 95 34 fe 3d
       0.12702823 0.2130847 -0.13162288 0.12412373
0002e0 f4 a0 0c 3e fc a5 02 be a7 ce 05 be 9f e4 30 bc
       0.13733274 -0.1275863 -0.13067113 -0.010796695
0002f0 1f c8 b8 bd 9b 01 ac 3d c8 cf 98 bc c2 20 d6 bd
       -0.09022545 0.08398744 -0.018653765 -0.10455467
000300 9c 90 e6 3d 8a 32 da 3d 99 f2 41 be f0 ff 4d 3e
       0.11258051 0.10654171 -0.189402 0.20117164
000310 b0 dc 25 be a8 bb 9f bd 61 6c b9 bd d4 b9 a4 bd
       -0.16197467 -0.077994645 -0.09053875 -0.080432564
000320 6f 11 56 3d 58 f8 05 3d 22 24 94 bb a0 ff 1a be
       0.05226272 0.032707542 -0.004520909 -0.15136576
000330 6d b0 06 3e b0 30 e4 3e fc d1 10 3e 1d 66 19 3d
       0.13153239 0.44568396 0.14142603 0.0374509
000340 03 5d af 3e 1e 7c a3 3d a7 fd 84 3e a6 07 02 be
       0.3425065 0.07982658 0.2597477 -0.1269823
000350 df 35 8d 3d 2d e7 bc 3d f5 30 86 3e 93 5d 94 be
       0.06895041 0.09223781 0.26209226 -0.2897764
000360 1d 5c 83 3d 9f 42 54 bd 72 06 1e 3e 17 d9 3c 3d
       0.064140536 -0.051821347 0.15432146 0.04610547
000370 4b f4 29 bc e4 cc 73 be 2a 83 08 3d f8 59 25 3e
       -0.010373185 -0.23808628 0.033328213 0.16147602
000380 1a 83 4e bd 93 35 ac 3e c2 b3 e9 3d b4 5a 88 3a
       -0.050417997 0.33634624 0.11411239 0.0010403008
000390 1b ec 89 be 89 19 bb 3d 58 4f 30 3e 86 45 5b be
       -0.26937947 0.0913573 0.17217767 -0.2141324
0003a0 78 dd a3 be f7 1d 92 3e 1f 4c 33 be 11 73 14 bd
       -0.32004905 0.28538486 -0.17509507 -0.03624255
0003b0 cf c5 86 3d a4 9b cc 3a 8d c1 b7 3e 4f 10 24 3e
       0.06580698 0.0015610349 0.35889855 0.16021846
0003c0 c9 89 33 be 12 92 6b be db 57 1a be 4d 6d 53 be
       -0.1753303 -0.2300494 -0.15072577 -0.20647164
0003d0 4f 03 25 be 03 c2 d1 3d 30 e2 cc 3d e5 63 3f be
       -0.16114543 0.10242083 0.10004079 -0.1869045
0003e0 c4 39 37 3e 2a 40 66 be a3 0c a2 bd a0 32 c5 3c
       0.1789313 -0.22485414 -0.079125665 0.024071991
0003f0 2b 78 a6 3b f3 33 94 3c e4 94 03 be 0e d8 b9 3d
       0.005080243 0.018091178 -0.12849766 0.09074412

bias f4 [32]
000000 72 c3 32 be 1a 70 af be e6 09 c7 bd eb 2c 2d bd
       -0.17457369 -0.34265214 -0.09718685 -0.042279165
000010 4e 43 1e be fd d3 92 3e 9f 56 a0 be 51 f9 3a 3e
       -0.15455362 0.2867736 -0.31316087 0.18259169
000020 02 64 6a 3d 8c 35 a5 bd 4b 04 32 be 6a 4b 6d be
       0.05722428 -0.08066854 -0.1738445 -0.231733
000030 7b 7d 3e 3e 7e a2 b6 bd 43 27 5b 3d d6 20 b8 bd
       0.18602555 -0.08917712 0.05350424 -0.08990638
000040 10 c9 39 3f 2e e3 34 bd db d4 eb 3d 74 ef 5b 3d
       0.7257242 -0.044161968 0.11515208 0.053695157
000050 d7 f2 6a bc f5 55 d3 3e 6c 16 1e 3e da e4 0d be
       -0.014340124 0.41276518 0.15438241 -0.13856831
000060 5a f6 93 be 0b 1e e6 bd 8f 55 3b be b8 16 2b 3d
       -0.2889889 -0.11236199 -0.18294357 0.041769713
000070 37 f0 9e 3d 8b 7d 6f 3e dc 55 c2 3d 6b 1c 4e bd
       0.07760661 0.23387735 0.094890326 -0.05032007

weight f4 [64, 32]
000000 03 e8 00 3d 4f 40 ff 3d 37 82 b3 bc a2 62 f6 bd
       0.031471264 0.12463438 -0.021912677 -0.120305315
000010 c7 67 b4 bd b3 f4 7d 3c ca 66 08 3d 12 0b 07 be
       -0.088088565 0.015500235 0.033301152 -0.13187817
000020 e4 f2 78 3d bb 85 dd bd bf ae 38 3e fd 20 23 3e
       0.060778514 -0.10816523 0.1803541 0.15930553
000030 45 58 9b 3d c8 9f 67 bc ba 09 be bc b6 15 09 3e
       0.075851955 -0.014137216 -0.023197997 0.13387188
000040 fd ab 70 3d 07 b5 10 3e 8e 0a a5 3d 9f f2 f2 3d
       0.05875777 0.14131556 0.08058654 0.118626826
000050 76 8e 8b 3d b7 f2 1e bd 15 e9 1a 3c 8b 17 0c 3e
       0.06814282 -0.03880569 0.009454985 0.13680856
000060 08 0b e0 3d 1a dd f4 bd ea e1 f1 bc c4 8f fd bb
       0.10939604 -0.11956234 -0.02952667 -0.0077380855
000070 19 3a 35 3e b8 86 19 3e 03 87 26 3d 90 6f 44 be
       0.17697944 0.14992797 0.0406561 -0.19183183
000080 c5 8e ba bc 79 95 2a be 48 54 36 bd 1a ef 9a bc
       -0.022773156 -0.16658582 -0.04451397 -0.01891284
000090 43 d3 12 3d 8e 19 67 3e f7 63 e6 3d 1b 70 12 3e
       0.035846006 0.22568342 0.112495355 0.14300577
0000a0 6a 36 48 3d 4f dd 95 3d db 5d 99 3d a7 c8 90 3c
       0.04888002 0.07317602 0.07488605 0.017673803
0000b0 6b 01 16 3d 3c 50 13 3e b9 94 ff 3d af 42 33 3c
       0.036622446 0.14386076 0.124795385 0.010941192
0000c0 e2 56 86 3e fe 8b 37 3e 9a 70 66 3e 3e 0b 4d 3d
       0.2623816 0.17924497 0.22503892 0.05005955
0000d0 c1 8e 31 be ca 57 67 bd a6 6a d9 bc c5 df 19 be
       -0.17339613 -0.056480207 -0.026540112 -0.15026768
0000e0 94 dc 13 be 70 88 c9 bc 94 a3 83 3d bc b7 4d 3d
       -0.14439613 -0.024601191 0.064276844 0.05022405
0000f0 00 a1 30 be 7a ae 07 be cf 13 b7 bd 69 a5 1e bd
       -0.17248917 -0.13250151 -0.08939325 -0.038731966
000100 65 ae 83 3d 89 f2 2d be 65 58 1a be 39 72 09 3e
       0.064297475 -0.16987051 -0.15072782 0.13422479
000110 cb 12 f6 bd 79 78 c0 bd 98 e1 24 be 97 27 03 be
       -0.12015303 -0.09397978 -0.16101682 -0.12808071
000120 47 7c 21 be 0a c3 03 be 69 8a 51 3c ca 2a 3c 3d
       -0.15770064 -0.1286737 0.012789347 0.045939244
000130 85 df 90 3c 1e 44 81 bc 29 69 0f be 68 7d cb 3d
       0.017684707 -0.015779551 -0.14004959 0.09936029
000140 de 7e 05 3e 81 fc cb bd 98 3d 19 3e 9a 1a f8 3d
       0.13036677 -0.09960271 0.14964902 0.12114449
000150 ce de 0b be 88 4b a0 bc 60 45 56 bd 09 8b 25 be
       -0.13659212 -0.019567266 -0.052312255 -0.16166319
000160 9c dd a6 bd 33 51 ac 3d 19 c9 14 3e 3c d4 1a bc
       -0.081477374 0.08413925 0.14529838 -0.009450015
000170 5e 4a 05 be 2e 2b 07 3d 93 66 11 be c7 2f 9d bd
       -0.1301665 0.033000164 -0.14199285 -0.076751284
000180 98 e9 e7 3d cf 64 82 3d fe e6 dd bd 35 f8 0f 3e
       0.11323851 0.06366884 -0.10835074 0.14059527
000190 cb 71 3e be 32 81 3b bd c8 1c ed 3d 8e 77 5e 3d
       -0.18598096 -0.045777507 0.11577755 0.054313235
0001a0 ff 5c 96 3d c9 06 bb 3a 69 06 a0 bc 6a 44 f4 bd
       0.07341956 0.001426899 -0.019534307 -0.119271114
0001b0 5a e2 06 3e 36 da c2 3c 9e 83 d9 3d bf c6 96 bd
       0.13172284 0.023785692 0.10620807 -0.073621266
0001c0 48 9b f8 3d f4 58 a9 bd 9e 87 e4 bc 4f 79 6a bc
       0.121389925 -0.082689196 -0.027896699 -0.014311149
0001d0 48 bc 2f be 1a 5d 22 3e 4f 23 04 3e d5 ca bb bc
       -0.17161667 0.15855828 0.12904094 -0.022923866
0001e0 31 85 bd 3d 6c 92 8a 3d 61 44 d8 3d 46 38 31 be
       0.0925392 0.06766209 0.10559917 -0.17306623
0001f0 5f 80 a0 bc 4a 5e 3e 3e 1f d4 49 3e 6e e0 85 3e
       -0.019592462 0.18590656 0.19709824 0.2614779
000200 de 71 8d 3d e2 57 38 3e ea a5 0b 3e 6f 8e 17 3e
       0.06906484 0.18002275 0.1363751 0.14800428
000210 ae fd f7 bd 58 70 9d bd 56 8d 70 3d af 58 5d be
       -0.121089324 -0.076874435 0.05872854 -0.21615861
000220 5c 21 1b 3e 41 3d 24 be 29 cd a9 bd 5a 42 f1 b9
       0.15149444 -0.16038992 -0.08291084 -0.00046016538
000230 36 5e 86 3d 79 05 49 3e 6c 06 6f 3e a5 70 1f be
       0.06560938 0.19630994 0.23342294 -0.15570314
000240 ea ba a0 3d 93 61 2c 3e e5 ab 95 bd 50 2d a6 3b
       0.07848151 0.16834097 -0.07308177 0.0050713196
000250 d3 af 32 3d bf 9f a5 3d fe 4f 83 3d 63 fd 17 3d
       0.04362471 0.0808711 0.06411742 0.037106883
000260 af 57 8c bb 71 0d e2 bb d9 f5 6a 3d 24 c6 b7 3c
       -0.0042829136 -0.006898575 0.057363365 0.022433348
000270 c0 61 99 bc 49 67 5f bd ed 5f bb 3d 07 59 38 3e
       -0.018723369 -0.05454186 0.09149156 0.18002711
000280 3b 9e ae 3c 0f 98 82 bd e6 eb 2c 3e 30 34 b9 bd
       0.021315685 -0.06376659 0.16886863 -0.09043157
000290 8a ba 4a bd ad 0e 8e bd 93 fc cc bc ca f7 5e bd
       -0.049494304 -0.06936393 -0.02502278 -0.05443553
0002a0 ff ff 8b 3c 94 76 a2 3d a7 3f 3b 3e 3e f8 ee bd
       0.017089842 0.07932773 0.18286 -0.11668442
0002b0 4b fe 41 bb 13 c9 e9 3d bc ca f4 3d 72 d2 11 3d
       -0.0029601033 0.11415305 0.11952731 0.035601087
0002c0 ff de 3d be 0c 13 2c 3d 32 bf 67 3e 77 3f d1 3d
       -0.18542098 0.042010352 0.22631529 0.10217183
0002d0 8f a7 ae bc 3c f1 f0 bd e3 80 46 bc 56 7a 8a 3d
       -0.021320133 -0.11764762 -0.01211569 0.06761615
0002e0 4f 5d bc bd 94 f5 a3 bd c0 8a 2a 3d 74 f3 18 3d
       -0.09197485 -0.08005825 0.04163623 0.03734155
0002f0 70 c0 7e bc a6 71 d2 bd 35 78 41 3e bc 01 56 3e
       -0.01554881 -0.10275583 0.18893512 0.20899099
000300 8c 5d 0c 3e a4 ba e0 bd ec 75 5d ba 0b 86 12 bd
       0.1370756 -0.10973099 -0.00084480527 -0.035772365
000310 cb 45 74 bd 96 74 d0 3c 04 8c 53 3c 90 c8 fc 3c
       -0.059636872 0.025446218 0.0129118 0.030857354
000320 1f d8 77 bd d8 cd 0b be 02 72 a5 3c f6 74 ae bd
       -0.060508844 -0.13652742 0.020195965 -0.08518402
000330 b1 c7 1e be a2 af 92 3d a4 d5 0d 3e 4e 0d 90 ba
       -0.15505864 0.071624056 0.13851029 -0.0010990293
000340 32 01 35 be 2e 88 1d be dc 7f 29 be b1 cb a8 bc
       -0.17676237 -0.1538398 -0.1655268 -0.02060494
000350 7d 27 b3 3c bf b9 3e 3d 6d 17 1f be d1 1c fd 3d
       0.021869415 0.04656386 -0.1553628 0.12359012
000360 62 7b 4e bd 8a a3 8c bd af 28 e5 3b 75 2a 2f 3d
       -0.050410636 -0.0686713 0.0069933753 0.0427651
000370 36 6f 9f bd f7 33 1e be ec 66 9c 3d a4 a0 e6 3c
       -0.07784884 -0.1544951 0.07636818 0.028152771
000380 62 e3 d9 3b 95 96 37 be be ba c9 3c 38 97 32 bb
       0.0066494206 -0.17928536 0.024625178 -0.0027250778
000390 6f 36 0d 3d af 37 31 be 51 ea 05 3e 08 63 b4 bd
       0.03447574 -0.17306398 0.13077666 -0.08807951
0003a0 09 88 3f bd 13 e7 8f 3d b7 18 a6 bc e9 c8 88 3d
       -0.046760593 0.07026496 -0.020275457 0.066789456
0003b0 5a f4 80 3d aa 43 14 be 08 92 df bd 64 eb e3 bc
       0.06296606 -0.14478937 -0.10916525 -0.027822204
0003c0 58 fa 36 be ba 78 82 bd 50 c7 a5 3d 02 8c 0b be
       -0.17868936 -0.06370683 0.080946565 -0.13627627
0003d0 5b cd ce 3d cb ca 3a be 67 39 da 3d 3c 73 f2 3c
       0.10097762 -0.18241422 0.1065548 0.029595964
0003e0 32 28 c0 bd 9e f6 08 3e 34 72 87 bd d7 82 0b 3e
       -0.09382667 0.13375327 -0.066135794 0.1362413
0003f0 1c 14 c6 3d 5d 2d 99 bd 49 0c 1f 3d 96 19 16 be
       0.09671804 -0.074793555 0.038830075 -0.14658198

bias f4 [64]
000000 8a 75 25 3e 82 ed 72 3d 9a f2 f8 bd fb aa a7 bd
       0.16158119 0.059308536 -0.121556476 -0.08186909
000010 e6 1f 12 be f4 39 59 3e c6 cb 42 bd b5 55 3c be
       -0.14269981 0.21213514 -0.047557615 -0.1839207
000020 57 f0 ca 3d 2d ce 3b bd cd b1 4d bb 25 9d ac bb
       0.099091224 -0.04585092 -0.0031386495 -0.0052677565
000030 1a 39 c6 3e 31 9a a2 3a 28 15 bc bd 51 03 87 3e
       0.3871544 0.0012405572 -0.09183723 0.26369718
000040 c3 14 74 3d cc 3b 0e be 94 ba 30 be ae 22 1b be
       0.059590112 -0.13889998 -0.17258674 -0.15149948
000050 7d 91 b4 3c cd fd 94 bd ed 13 06 bd 39 f4 7d 3e
       0.02204203 -0.07274971 -0.032733846 0.24800195
000060 68 22 69 bd 25 2c ec 3d c3 87 36 3d 70 69 40 bd
       -0.056917578 0.115318574 0.044563066 -0.046975553
000070 8c 4f 06 be 20 90 a4 3d cf 4f 25 3f c6 78 cf 3d
       -0.13116282 0.08035302 0.64574903 0.101304576
000080 3a 1e d7 bd c9 60 10 bd 56 35 d5 3c 59 58 9b 3e
       -0.10503812 -0.03524855 0.02602641 0.3034084
000090 50 65 8a bd c1 56 06 3e ea 5e 83 bd 2b c4 67 bd
       -0.06757605 0.13119031 -0.06414588 -0.056583565
0000a0 0b 73 1c bd 38 c3 0d be d0 7a 05 3f dd a8 e5 bd
       -0.03819565 -0.13844001 0.5214052 -0.11213849
0000b0 c9 60 51 3d 3e ee 0f be c7 e7 d8 3d c8 d4 fd bd
       0.051117692 -0.14055726 0.10591083 -0.123941004
0000c0 4d eb 4c be 62 1f 34 bd 04 2b 83 3e 2e 28 18 3d
       -0.20011635 -0.04397524 0.25618756 0.037147693
0000d0 b9 ae 73 bd db 82 70 be 1a 3f 65 3d da a9 11 bc
       -0.0594928 -0.23487417 0.05596838 -0.008890593
0000e0 f9 16 91 bc 98 6b 64 bd 88 3f 2b be 9f ec 65 3d
       -0.01771115 -0.055766672 -0.16723454 0.056133863
0000f0 84 9c 0f 3e 71 0b 98 be 68 9c 24 be b1 66 c8 bd
       0.1402455 -0.2969623 -0.16075289 -0.09785212

weight f4 [128, 64]
000000 0c c6 9f bd bf 76 83 3d c6 e4 97 bc 4f ec b4 3c
       -0.07801446 0.064191334 -0.018541705 0.022085337
000010 55 c7 32 3d 53 05 09 bd c7 85 37 bd 97 cd 7f 3d
       0.04364713 -0.033452343 -0.044805314 0.062451925
000020 10 63 3d bc a5 c9 ee bc a9 6c bc 3d ef bf 87 bc
       -0.011559263 -0.029148886 0.09200413 -0.016571013
000030 45 d7 b1 bd 57 0f ba 3d 13 3c cc bd 32 a8 27 bc
       -0.086836375 0.09084957 -0.09972396 -0.010232972
000040 de 85 93 3d 37 72 9c 3d 83 5c 65 bd 1d 54 b4 3d
       0.072032675 0.07638972 -0.05599643 0.08805106
000050 86 ab 5e bd fb f8 ff bd e5 90 93 3b 11 0d 54 bc
       -0.054362796 -0.12498661 0.0045033568 -0.012942568
000060 98 58 ae 3d 89 ac 6c 3d 09 0b 84 bd 8d 8f 4c bc
       0.08512992 0.05778173 -0.06447417 -0.012485397
000070 46 41 38 3d ce f6 61 bc 38 a1 af bb aa cb 51 3d
       0.044984125 -0.013791753 -0.005359795 0.05121962
000080 62 5f b2 3c df d5 f8 bd 85 65 ab 3c 32 d6 41 bd
       0.021773998 -0.12150168 0.020922432 -0.047323413
000090 2a a8 75 bd 42 79 18 3b d3 5e c6 3c 74 40 ad 3d
       -0.059974827 0.0023265635 0.024215138 0.08459559
0000a0 b3 57 db bc d7 b1 12 3d 6f ec af bb 43 fa f7 bc
       -0.026775217 0.035814133 -0.0053687613 -0.030270701
0000b0 10 85 c1 3d 62 7e af bd 0a 6b ec 3b e6 ea a2 3b
       0.09449208 -0.085690275 0.0072149085 0.0049718497
0000c0 ad f5 c1 bc 0f c8 a1 3d d6 a5 5c bd 50 3a 15 bd
       -0.023676718 0.07899486 -0.05386909 -0.036432564
0000d0 72 a6 8c 3d f9 fb 0e bd c7 73 f2 3c a4 5a 96 bd
       0.068676844 -0.03490827 0.029596223 -0.07341507
0000e0 f1 6f a3 bc 2c a9 09 3d 9a 95 a5 3d fb 45 f1 3c
       -0.019950839 0.0336086 0.08085175 0.029452315
0000f0 ce f2 ff ba 6a e4 44 bd f3 db 25 bd a7 f7 27 bd
       -0.0019527317 -0.048069395 -0.040492963 -0.041007664
000100 17 cb 0e 3c 9b 15 22 3b 45 90 9e bd 2e 35 a3 3c
       0.008715413 0.0024732116 -0.07742361 0.019922819
000110 80 cf 4d bd 10 8b 8a bd 03 4c a4 3d 3e 50 7e bd
       -0.050246716 -0.06764805 0.080223106 -0.062088244
000120 08 c7 d7 3c 53 3c 24 bc e5 0e 97 bd 97 83 0d 3d
       0.026340023 -0.010024148 -0.07375888 0.034549322
000130 7d 49 35 bc c4 65 8a 3d 9e 1a 28 3d 79 ab 44 bc
       -0.011064884 0.067576915 0.04104101 -0.012003773
000140 da 0b 75 bb 10 9d a7 bb 3a 4e 6c 3d ff e4 9a 3c
       -0.0037391097 -0.005115159 0.05769179 0.018908022
000150 71 56 a0 3d 7d 45 35 bd 5b 2a 2c 3d a2 2b 6c bd
       0.078289874 -0.044255722 0.04203258 -0.0576588
000160 8b 23 be 3d a2 02 c9 3d a6 6f 2a bd 04 3e 09 bd
       0.09284123 0.09814955 -0.041610382 -0.03350641
000170 8a 05 97 bc 4c 2b 60 3c b0 b3 8a bd 8f 09 ec 3c
       -0.018435258 0.013682198 -0.06772554 0.028813152
000180 26 77 0d 3d db b1 de 3d 1d db 36 bd da 52 63 3d
       0.034537457 0.10873767 -0.044642556 0.055498935
000190 ee e3 ff 3d 9f bc 82 3c 9d 5f 27 3d f8 93 b5 bb
       0.12494646 0.015959082 0.04086267 -0.005541321
0001a0 85 77 0d 3c a3 7f 1c 3c 04 42 2b 3d a2 8b 47 bd
       0.008634453 0.009551915 0.041811004 -0.04871715
0001b0 38 08 c4 3c d7 26 a0 3d ee 40 31 3c 07 2a 8e bd
       0.0239297 0.07819908 0.010818703 -0.0694161
0001c0 9a 6d 18 3d a2 f7 6b 3d 7f 28 4a 3c cb eb 3d bd
       0.0372139 0.057609208 0.012338757 -0.046367448
0001d0 70 f3 bd 3d 0c 66 aa 3d fd e1 a7 3b d3 1e b4 bd
       0.09274948 0.08320245 0.0051233754 -0.08794942
0001e0 49 33 72 bd a3 bd 09 3d e5 85 3a bc e1 ef fa 3c
       -0.05913094 0.033628117 -0.011384462 0.030631961
0001f0 81 33 77 3d f0 18 ce 3b 31 95 29 bd ff a9 a1 3d
       0.060351852 0.006289594 -0.041402046 0.07893752
000200 b4 ac b2 3c 2f 38 1a 3d 28 99 c5 bd c2 fa 3b 3d
       0.021810867 0.037651237 -0.09648353 0.04589344
000210 b8 bd 71 bd 5a 73 b5 3d 23 a9 fb 3d cc 02 1b bd
       -0.05901882 0.08859892 0.1228812 -0.037844464
000220 7a 21 a6 3d ae 60 b3 3d 1d 0b 4f 3d 87 33 35 3d
       0.08111854 0.087586746 0.050547708 0.044238593
000230 06 dc f6 3c d7 97 fd bd 1d 84 b5 3d 1a 70 bb bc
       0.030134212 -0.12382477 0.08863089 -0.022880603
000240 4a 53 38 3e 79 d5 40 3d 9b 04 e1 bd 48 06 ac bc
       0.18000522 0.047078583 -0.109872065 -0.020999089
000250 47 8e 61 bc d6 56 21 3d ab 08 80 3c b5 6f 06 bc
       -0.013766832 0.039389454 0.015629133 -0.008205344
000260 4a cd 39 bd 34 0d 58 bd a3 a9 0b 3d 5c 69 ad 3d
       -0.045361795 -0.052746966 0.034097325 0.08467361
000270 fe 98 08 bd ea 6b ff bd 2e 59 d6 bd b9 33 a9 bd
       -0.03334903 -0.12471755 -0.104662284 -0.082618184
000280 77 12 df bd dc 8d 86 3c ff 6b 97 3d 4c 0a 7d bd
       -0.10892194 0.016425066 0.073936455 -0.061777398
000290 0c 38 17 3d d0 ce 43 bd 37 2b a7 bd 9d c0 8f 3d
       0.036918685 -0.047804654 -0.081625395 0.0701916
0002a0 bc 74 41 3c 00 56 50 bc ab 31 88 3d 02 36 9b bd
       0.011807617 -0.0127158165 0.066500984 -0.075786605
0002b0 11 72 84 ba 5d 71 ca bc 3f e5 f1 bc 32 f3 e7 3d
       -0.0010104795 -0.024712259 -0.029528258 0.11325683
0002c0 a5 93 9d bd 86 3f 7d bd e8 55 72 3c 62 99 84 3d
       -0.076941766 -0.06182816 0.014790989 0.06474568
0002d0 1e 94 ac 3d 69 ab b0 3d 4f 0a 54 bd 97 44 9c 3d
       0.084266886 0.08626444 -0.051767644 0.0763027
0002e0 b2 dd 6f bd 6e e1 b0 bd a4 c1 c3 3d 61 6b 9f bb
       -0.058561035 -0.08636747 0.095584184 -0.0048650955
0002f0 23 98 9f 3d 7e 16 b0 3b b4 85 89 3c 6f 53 a0 bc
       0.0779269 0.005373775 0.016787387 -0.019571034
000300 c3 ac 18 bc 95 b2 28 3c 8f 3a 5b 3c e1 35 56 3d
       -0.009318533 0.0102964835 0.013380661 0.052297477
000310 aa 2b 1b be d0 52 c5 bd 14 60 0a bb bf ed 4a bd
       -0.15153375 -0.09634936 -0.0021114396 -0.04954314
000320 e5 a7 98 3d 40 01 9b 3d fe ef fd bd de 82 80 3d
       0.07453898 0.07568598 -0.123992905 0.06274961
000330 0e b7 05 bd 91 b6 a5 bd 3d a6 86 bc e2 b6 a5 3c
       -0.032645278 -0.080914624 -0.01643669 0.020228807
000340 b9 24 aa 3d b0 4a d8 bd a3 fd e3 bd 77 30 ab 3d
       0.083077855 -0.105611205 -0.11132362 0.08358853
000350 81 b7 8d 3d 8e df c9 b9 1d 4a 8c 3d 0e 2d 39 b8
       0.06919766 -0.0003850427 0.068500735 -4.4149398e-05
000360 fd 3f c7 3d 20 be a0 3d ed 3a 56 bc ed dc 65 3d
       0.09729002 0.078487635 -0.013075572 0.056118894
000370 68 4d d0 3c 85 77 46 3c 95 fa 3a be eb 96 82 3d
       0.025427535 0.012113457 -0.18259652 0.063764416
000380 51 20 69 bd 28 21 10 3b 81 e4 f8 bc 51 43 43 3c
       -0.056915585 0.002199242 -0.030382397 0.011917905
000390 f8 8b 9f 3d a7 1d 61 3c 5f 88 bc bb 09 e9 a1 3d
       0.07790369 0.01373998 -0.0057535614 0.07905776
0003a0 46 bf 18 bd 9b b8 b3 3b 71 da b9 3d 84 b2 4b bd
       -0.037291788 0.005484653 0.090748675 -0.049730793
0003b0 a9 23 f7 b9 9b c6 b2 bd 81 f2 56 3c ce 86 cf bd
       -0.0004713808 -0.08729287 0.013119341 -0.10133134
0003c0 5c 6f 2b 3d 1b 48 06 3e db 4f 83 bc fd 78 b4 bb
       0.041854247 0.13113444 -0.016029289 -0.005507587
0003d0 08 3d 9b 3d 8f a4 99 bd 35 96 3f bd 53 ef a7 bd
       0.0758 -0.0750209 -0.046774108 -0.08199944
0003e0 1f 3f 4a bd 43 be fd 3c 5b 63 a3 3d 75 c9 4e 3c
       -0.049376603 0.030974513 0.07977935 0.012621273
0003f0 2d 18 98 3d 24 65 2d 3d 51 f7 d8 bd e2 9f bc bd
       0.07426486 0.042332783 -0.10594047 -0.09210183
